…
ias_lr=0.1, box=7.5, cls=0.5, dfl=1.5, pose=12.0, kobj=1.0, label_smoothing=0.0, nbs=64, hsv_h=0.015, hsv_s=0.7, hsv_v=0.4, degrees=0.0, translate=0.1, scale=0.5, shear=0.0, perspective=0.0, flipud=0.0, fliplr=0.5, bgr=0.0, mosaic=1.0, mixup=0.0, copy_paste=0.0, auto_augment=randaugment, erasing=0.4, crop_fraction=1.0, cfg=None, tracker=botsort.yaml, save_dir=runs/detect/train6
WARNING ⚠️ no model scale passed. Assuming scale='b'.

                   from  n    params  module                                       arguments                     
  0                  -1  1      1856  ultralytics.nn.modules.conv.Conv             [3, 64, 3, 2]                 
  1                  -1  1     73984  ultralytics.nn.modules.conv.Conv             [64, 128, 3, 2]               
  2                  -1  2    197632  ultralytics.nn.modules.block.C2f             [128, 128, 2, True]           
  3                  -1  1    295424  ultralytics.nn.modules.conv.Conv             [128, 256, 3, 2]              
  4                  -1  4   1444864  ultralytics.nn.modules.block.C2f             [256, 256, 4, True]           
  5                  -1  1    137728  ultralytics.nn.modules.block.SCDown          [256, 512, 3, 2]              
  6                  -1  4   5773312  ultralytics.nn.modules.block.C2f             [512, 512, 4, True]           
  7                  -1  1    268800  ultralytics.nn.modules.block.SCDown          [512, 512, 3, 2]              
  8                  -1  2   1338368  ultralytics.nn.modules.block.C2fCIB          [512, 512, 2, True]           
  9                  -1  1    656896  ultralytics.nn.modules.block.SPPF            [512, 512, 5]                 
 10                  -1  1    990976  ultralytics.nn.modules.block.PSA             [512, 512]                    
 11                  -1  1         0  torch.nn.modules.upsampling.Upsample         [None, 2, 'nearest']          
 12             [-1, 6]  1         0  ultralytics.nn.modules.conv.Concat           [1]                           
 13                  -1  2   1600512  ultralytics.nn.modules.block.C2fCIB          [1024, 512, 2, True]          
 14                  -1  1         0  torch.nn.modules.upsampling.Upsample         [None, 2, 'nearest']          
 15             [-1, 4]  1         0  ultralytics.nn.modules.conv.Concat           [1]                           
 16                  -1  2    919552  ultralytics.nn.modules.block.C2f             [768, 256, 2]                 
 17                  -1  1    590336  ultralytics.nn.modules.conv.Conv             [256, 256, 3, 2]              
 18            [-1, 13]  1         0  ultralytics.nn.modules.conv.Concat           [1]                           
 19                  -1  2   1469440  ultralytics.nn.modules.block.C2fCIB          [768, 512, 2, True]           
 20                  -1  1    268800  ultralytics.nn.modules.block.SCDown          [512, 512, 3, 2]              
 21            [-1, 10]  1         0  ultralytics.nn.modules.conv.Concat           [1]                           
 22                  -1  2   1600512  ultralytics.nn.modules.block.C2fCIB          [1024, 512, 2, True]          
 23        [16, 19, 22]  1   2945392  ultralytics.nn.modules.head.v10Detect        [80, [256, 512, 512]]         
YOLOv10b summary: 518 layers, 20,574,384 parameters, 20,574,368 gradients, 99.4 GFLOPs

Freezing layer 'model.23.dfl.conv.weight'
[34m[1mAMP: [0mrunning Automatic Mixed Precision (AMP) checks with YOLOv8n...
[34m[1mAMP: [0mchecks passed ✅
[34m[1mtrain: [0mScanning /home/hslee/Desktop/Embedded_AI/Backbone-Neck-Self-Distillation/yolov10/datasets/coco/labels/tr
…
