…
lso use `weights=ResNet50_Weights.DEFAULT` to get the most up-to-date weights.
  warnings.warn(msg)
/home/hslee/Backbone-Neck-Self-Distillation/RetinaNet/models/_utils.py:223: UserWarning: Arguments other than a weight enum or `None` for 'weights' are deprecated since 0.13 and may be removed in the future. The current behavior is equivalent to passing `weights=ResNet50_Weights.IMAGENET1K_V1`. You can also use `weights=ResNet50_Weights.DEFAULT` to get the most up-to-date weights.
  warnings.warn(msg)
return_layers: {'layer2': '0', 'layer3': '1', 'layer4': '2'}
extra_blocks: LastLevelP6P7(
  (p6): Conv2d(256, 256, kernel_size=(3, 3), stride=(2, 2), padding=(1, 1))
  (p7): Conv2d(256, 256, kernel_size=(3, 3), stride=(2, 2), padding=(1, 1))
)
backbone: BackboneWithFPN(
  (body): IntermediateLayerGetter(
    (conv1): Conv2d(3, 64, kernel_size=(7, 7), stride=(2, 2), padding=(3, 3), bias=False)
    (bn1): FrozenBatchNorm2d(64, eps=1e-05)
    (relu): ReLU(inplace=True)
    (maxpool): MaxPool2d(kernel_size=3, stride=2, padding=1, dilation=1, ceil_mode=False)
    (layer1): Sequential(
      (0): Bottleneck(
        (conv1): Conv2d(64, 64, kernel_size=(1, 1), stride=(1, 1), bias=False)
        (bn1): FrozenBatchNorm2d(64, eps=1e-05)
        (conv2): Conv2d(64, 64, kernel_size=(3, 3), stride=(1, 1), padding=(1, 1), bias=False)
        (bn2): FrozenBatchNorm2d(64, eps=1e-05)
        (conv3): Conv2d(64, 256, kernel_size=(1, 1), stride=(1, 1), bias=False)
        (bn3): FrozenBatchNorm2d(256, eps=1e-05)
        (relu): ReLU(inplace=True)
        (downsample): Sequential(
          (0): Conv2d(64, 256, kernel_size=(1, 1), stride=(1, 1), bias=False)
          (1): FrozenBatchNorm2d(256, eps=1e-05)
        )
      )
      (1): Bottleneck(
        (conv1): Conv2d(256, 64, kernel_size=(1, 1), stride=(1, 1), bias=False)
        (bn1): FrozenBatchNorm2d(64, eps=1e-05)
        (conv2): Conv2d(64, 64, kernel_size=(3, 3), stride=(1, 1), padding=(1, 1), bias=False)
        (bn2): FrozenBatchNorm2d(64, eps=1e-05)
        (conv3): Conv2d(64, 256, kernel_size=(1, 1), stride=(1, 1), bias=False)
        (bn3): FrozenBatchNorm2d(256, eps=1e-05)
        (relu): ReLU(inplace=True)
      )
      (2): Bottleneck(
        (conv1): Conv2d(256, 64, kernel_size=(1, 1), stride=(1, 1), bias=False)
        (bn1): FrozenBatchNorm2d(64, eps=1e-05)
        (conv2): Conv2d(64, 64, kernel_size=(3, 3), stride=(1, 1), padding=(1, 1), bias=False)
        (bn2): FrozenBatchNorm2d(64, eps=1e-05)
        (conv3): Conv2d(64, 256, kernel_size=(1, 1), stride=(1, 1), bias=False)
        (bn3): FrozenBatchNorm2d(256, eps=1e-05)
        (relu): ReLU(inplace=True)
      )
    )
    (layer2): Sequential(
      (0): Bottleneck(
        (conv1): Conv2d(256, 128, kernel_size=(1, 1), stride=(1, 1), bias=False)
        (bn1): FrozenBatchNorm2d(128, eps=1e-05)
        (conv2): Conv2d(128, 128, kernel_size=(3, 3), stride=(2, 2), padding=(1, 1), bias=False)
        (bn2): FrozenBatchNorm2d(128, eps=1e-05)
        (conv3): Conv2d(128, 512, kernel_size=(1, 1), stride=(1, 1), bias=False)
        (bn3): FrozenBatchNorm2d(512, eps=1e-05)
        (relu): ReLU(inplace=True)
        (downsample): Sequential(
          (0): Conv2d(256, 512, kernel_size=(1, 1), stride=(2, 2), bias=False)
          (1): FrozenBatchNorm2d(512, eps=1e-05)
        )
      )
      (1): Bottleneck(
        (conv1): Conv2d(512, 128, kernel_size=(1, 1), stride=(1, 1), bias=False)
        (bn1): FrozenBatchNorm2d(128, eps=1e-05)
        (conv2): Conv2d(128, 128, kernel_size=(3, 3), stride=(1, 1), padding=(1, 1), bias=False)
        (bn2): FrozenBatchNorm2d(128, eps=1e-05)
        (conv3): Conv2d(128, 512, kernel_size=(1, 1), stride=(1, 1), bias=False)
        (bn3): FrozenBatchNorm2d(512, eps=1e-05)
        (relu): ReLU(inplace=True)
      )
      (2): Bottleneck(
        (conv1): Conv2d(512, 128, kernel_size=(1, 1), stride=(1, 1), bias=False)
        (bn1): FrozenBatchNorm2d(128, eps=1e-05)
        (conv2): Conv2d(128, 128, kernel_size=(3, 3), stride=(1, 1), padding=(1, 1), bias=False)
        (bn2): FrozenBatchNorm2d(128, eps=1e-05)
        (conv3): Conv2d(128, 512, kernel_size=(1, 1), stride=(1, 1), bias=False)
        (bn3): FrozenBatchNorm2d(512, eps=1e-05)
        (relu): ReLU(inplace=True)
      )
      (3): Bottleneck(
        (conv1): Conv2d(512, 128, kernel_size=(1, 1), stride=(1, 1), bias=False)
        (bn1): FrozenBatchNorm2d(128, eps=1e-05)
        (conv2): Conv2d(128, 128, kernel_size=(3, 3), stride=(1, 1), padding=(1, 1), bias=False)
        (bn2): FrozenBatchNorm2d(128, eps=1e-05)
        (conv3): Conv2d(128, 512, kernel_size=(1, 1), stride=(1, 1), bias=False)
        (bn3): FrozenBatchNorm2d(512, eps=1e-05)
        (relu): ReLU(inplace=True)
      )
    )
    (layer3): Sequential(
      (0): Bottleneck(
        (conv1): Conv2d(512, 256, kernel_size=(1, 1), stride=(1, 1), bias=False)
        (bn1): FrozenBatchNorm2d(256, eps=1e-05)
        (conv2): Conv2d(256, 256, kernel_size=(3, 3), stride=(2, 2), padding=(1, 1), bias=False)
        (bn2): FrozenBatchNorm2d(256, eps=1e-05)
        (conv3): Conv2d(256, 1024, kernel_size=(1, 1), stride=(1, 1), bias=False)
        (bn3): FrozenBatchNorm2d(1024, eps=1e-05)
        (relu): ReLU(inplace=True)
        (downsample): Sequential(
          (0): Conv2d(512, 1024, kernel_size=(1, 1), stride=(2, 2), bias=False)
          (1): FrozenBatchNorm2d(1024, eps=1e-05)
        )
      )
      (1): Bottleneck(
        (conv1): Conv2d(1024, 256, kernel_size=(1, 1), stride=(1, 1), bias=False)
        (bn1): FrozenBatchNorm2d(256, eps=1e-05)
        (conv2): Conv2d(256, 256, kernel_size=(3, 3), stride=(1, 1), padding=(1, 1), bias=False)
        (bn2): FrozenBatchNorm2d(256, eps=1e-05)
        (conv3): Conv2d(256, 1024, kernel_size=(1, 1), stride=(1, 1), bias=False)
        (bn3): FrozenBatchNorm2d(1024, eps=1e-05)
        (relu): ReLU(inplace=True)
      )
      (2): Bottleneck(
        (conv1): Conv2d(1024, 256, kernel_size=(1, 1), stride=(1, 1), bias=False)
        (bn1): FrozenBatchNorm2d(256, eps=1e-05)
        (conv2): Conv2d(256, 256, kernel_size=(3, 3), stride=(1, 1), padding=(1, 1), bias=False)
        (bn2): FrozenBatchNorm2d(256, eps=1e-05)
        (conv3): Conv2d(256, 1024, kernel_size=(1, 1), stride=(1, 1), bias=False)
        (bn3): FrozenBatchNorm2d(1024, eps=1e-05)
        (relu): ReLU(inplace=True)
      )
      (3): Bottleneck(
        (conv1): Conv2d(1024, 256, kernel_size=(1, 1), stride=(1, 1), bias=False)
        (bn1): FrozenBatchNorm2d(256, eps=1e-05)
        (conv2): Conv2d(256, 256, kernel_size=(3, 3), stride=(1, 1), padding=(1, 1), bias=False)
        (bn2): FrozenBatchNorm2d(256, eps=1e-05)
        (conv3): Conv2d(256, 1024, kernel_size=(1, 1), stride=(1, 1), bias=False)
        (bn3): FrozenBatchNorm2d(1024, eps=1e-05)
        (relu): ReLU(inplace=True)
      )
      (4): Bottleneck(
        (conv1): Conv2d(1024, 256, kernel_size=(1, 1), stride=(1, 1), bias=False)
        (bn1): FrozenBatchNorm2d(256, eps=1e-05)
        (conv2): Conv2d(256, 256, kernel_size=(3, 3), stride=(1, 1), padding=(1, 1), bias=False)
        (bn2): FrozenBatchNorm2d(256, eps=1e-05)
        (conv3): Conv2d(256, 1024, kernel_size=(1, 1), stride=(1, 1), bias=False)
        (bn3): FrozenBatchNorm2d(1024, eps=1e-05)
        (relu): ReLU(inplace=True)
      )
      (5): Bottleneck(
        (conv1): Conv2d(1024, 256, kernel_size=(1, 1), stride=(1, 1), bias=False)
        (bn1): FrozenBatchNorm2d(256, eps=1e-05)
        (conv2): Conv2d(256, 256, kernel_size=(3, 3), stride=(1, 1), padding=(1, 1), bias=False)
        (bn2): FrozenBatchNorm2d(256, eps=1e-05)
        (conv3): Conv2d(256, 1024, kernel_size=(1, 1), stride=(1, 1), bias=False)
        (bn3): FrozenBatchNorm2d(1024, eps=1e-05)
        (relu): ReLU(inplace=True)
      )
    )
    (layer4): Sequential(
      (0): Bottleneck(
        (conv1): Conv2d(1024, 512, kernel_size=(1, 1), stride=(1, 1), bias=False)
        (bn1): FrozenBatchNorm2d(512, eps=1e-05)
        (conv2): Conv2d(512, 512, kernel_size=(3, 3), stride=(2, 2), padding=(1, 1), bias=False)
        (bn2): FrozenBatchNorm2d(512, eps=1e-05)
        (conv3): Conv2d(512, 2048, kernel_size=(1, 1), stride=(1, 1), bias=False)
        (bn3): FrozenBatchNorm2d(2048, eps=1e-05)
        (relu): ReLU(inplace=True)
        (downsample): Sequential(
          (0): Conv2d(1024, 2048, kernel_size=(1, 1), stride=(2, 2), bias=False)
          (1): FrozenBatchNorm2d(2048, eps=1e-05)
        )
      )
      (1): Bottleneck(
        (conv1): Conv2d(2048, 512, kernel_size=(1, 1), stride=(1, 1), bias=False)
        (bn1): FrozenBatchNorm2d(512, eps=1e-05)
        (conv2): Conv2d(512, 512, kernel_size=(3, 3), stride=(1, 1), padding=(1, 1), bias=False)
        (bn2): FrozenBatchNorm2d(512, eps=1e-05)
        (conv3): Conv2d(512, 2048, kernel_size=(1, 1), stride=(1, 1), bias=False)
        (bn3): FrozenBatchNorm2d(2048, eps=1e-05)
        (relu): ReLU(inplace=True)
      )
      (2): Bottleneck(
        (conv1): Conv2d(2048, 512, kernel_size=(1, 1), stride=(1, 1), bias=False)
        (bn1): FrozenBatchNorm2d(512, eps=1e-05)
        (conv2): Conv2d(512, 512, kernel_size=(3, 3), stride=(1, 1), padding=(1, 1), bias=False)
        (bn2): FrozenBatchNorm2d(512, eps=1e-05)
        (conv3): Conv2d(512, 2048, kernel_size=(1, 1), stride=(1, 1), bias=False)
        (bn3): FrozenBatchNorm2d(2048, eps=1e-05)
        (relu): ReLU(inplace=True)
      )
    )
  )
  (fpn): FeaturePyramidNetwork(
    (inner_blocks): ModuleList(
      (0): Conv2dNormActivation(
        (0): Conv2d(512, 256, kernel_size=(1, 1), stride=(1, 1))
      )
      (1): Conv2dNormActivation(
        (0): Conv2d(1024, 256, kernel_size=(1, 1), stride=(1, 1))
      )
      (2): Conv2dNormActivation(
        (0): Conv2d(2048, 256, kernel_size=(1, 1), stride=(1, 1))
      )
    )
    (layer_blocks): ModuleList(
      (0-2): 3 x Conv2dNormActivation(
        (0): Conv2d(256, 256, kernel_size=(3, 3), stride=(1, 1), padding=(1, 1))
      )
    )
    (extra_blocks): LastLevelP6P7(
      (p6): Conv2d(256, 256, kernel_size=(3, 3), stride=(2, 2), padding=(1, 1))
      (p7): Conv2d(256, 256, kernel_size=(3, 3), stride=(2, 2), padding=(1, 1))
    )
  )
)
Start training
Epoch: [0]  [   0/7329]  eta: 3:22:14  lr: 0.000010  loss: 2.1845 (2.1845)  bbox_regression: 0.8267 (0.8267)  classification: 1.3578 (1.3578)  time: 1.6557  data: 0.4656  max mem: 10509
Epoch: [0]  [  20/7329]  eta: 1:06:39  lr: 0.000110  loss: 1.9754 (2.0106)  bbox_regression: 0.6934 (0.7177)  classification: 1.2845 (1.2929)  time: 0.4917  data: 0.0123  max mem: 11863
…
