…
 [url + ('coco2017labels-segments.zip' if segments else 'coco2017labels.zip')]  # labels\ndownload(urls, dir=dir.parent)\n# Download data\nurls = ['http://images.cocodataset.org/zips/train2017.zip',  # 19G, 118k images\n        'http://images.cocodataset.org/zips/val2017.zip',  # 1G, 5k images\n        'http://images.cocodataset.org/zips/test2017.zip']  # 7G, 41k images (optional)\ndownload(urls, dir=dir / 'images', threads=3)\n"}

                   from  n    params  module                                       arguments                     
  0                  -1  1      5280  ultralytics.nn.modules.conv.Conv             [3, 48, 6, 2, 2]              
  1                  -1  1     41664  ultralytics.nn.modules.conv.Conv             [48, 96, 3, 2]                
  2                  -1  2     65280  ultralytics.nn.modules.block.C3              [96, 96, 2]                   
  3                  -1  1    166272  ultralytics.nn.modules.conv.Conv             [96, 192, 3, 2]               
  4                  -1  4    444672  ultralytics.nn.modules.block.C3              [192, 192, 4]                 
  5                  -1  1    664320  ultralytics.nn.modules.conv.Conv             [192, 384, 3, 2]              
  6                  -1  6   2512896  ultralytics.nn.modules.block.C3              [384, 384, 6]                 
  7                  -1  1   2655744  ultralytics.nn.modules.conv.Conv             [384, 768, 3, 2]              
  8                  -1  2   4134912  ultralytics.nn.modules.block.C3              [768, 768, 2]                 
  9                  -1  1   1476864  ultralytics.nn.modules.block.SPPF            [768, 768, 5]                 
 10                  -1  1    295680  ultralytics.nn.modules.conv.Conv             [768, 384, 1, 1]              
 11                  -1  1         0  torch.nn.modules.upsampling.Upsample         [None, 2, 'nearest']          
 12             [-1, 6]  1         0  ultralytics.nn.modules.conv.Concat           [1]                           
 13                  -1  2   1182720  ultralytics.nn.modules.block.C3              [768, 384, 2, False]          
 14                  -1  1     74112  ultralytics.nn.modules.conv.Conv             [384, 192, 1, 1]              
 15                  -1  1         0  torch.nn.modules.upsampling.Upsample         [None, 2, 'nearest']          
 16             [-1, 4]  1         0  ultralytics.nn.modules.conv.Concat           [1]                           
 17                  -1  2    296448  ultralytics.nn.modules.block.C3              [384, 192, 2, False]          
 18                  -1  1    332160  ultralytics.nn.modules.conv.Conv             [192, 192, 3, 2]              
 19            [-1, 14]  1         0  ultralytics.nn.modules.conv.Concat           [1]                           
 20                  -1  2   1035264  ultralytics.nn.modules.block.C3              [384, 384, 2, False]          
 21                  -1  1   1327872  ultralytics.nn.modules.conv.Conv             [384, 384, 3, 2]              
 22            [-1, 10]  1         0  ultralytics.nn.modules.conv.Concat           [1]                           
 23                  -1  2   4134912  ultralytics.nn.modules.block.C3              [768, 768, 2, False]          
 24        [17, 20, 23]  1   4264384  ultralytics.nn.modules.head.Detect           [80, [192, 384, 768]]         
YOLOv5m summary: 339 layers, 25,111,456 parameters, 25,111,440 gradients, 64.6 GFLOPs

[34m[1mTensorBoard: [0mStart with 'tensorboard --logdir runs/detect/yolov10n3', view at http://localhost:6006/
[ultralytics/engine/trainer.py] setup_model() - self.model: DetectionModel(
  (model): Sequential(
    (0): Conv(
      (conv): Conv2d(3, 48, kernel_size=(6, 6), stride=(2, 2), padding=(2, 2), bias=False)
…
